model.pth (torch_old, 657650 bytes, 10 tensors)

weight f4 [32, 1, 3, 3]
00000000: 16c1 963e dfa1 bd3c fc1e 9cbe 380b 8b3e
00000010: 9c16 7e3d 783c 2bbe 19f4 523e e425 543e
00000020: 6d61 19be b090 63be 0436 80be d5ec 803e
00000030: 406f 2bbe 8022 273b 8ce5 e83d a8d0 5d3d
00000040: a061 ff3d 102d f9bc 98bd 6b3e d866 5c3e
00000050: 3265 ca3e 6d30 87be fffa c0bd 6a02 1bbe
00000060: e782 1b3e 3adf a2be 9ba5 15be 25e2 153e
00000070: 7337 e9bd 6c40 d2bd 6d96 01be 3948 99bd
00000080: 9941 94be dc9c e03d e00d 1a3d ae7d 3c3e
00000090: ab5c b1be 1926 febc 10aa 93be 4b1d 7e3e
000000a0: e93d ab3d f0cf d13d 6d9d c3bc 4acd be3e
000000b0: d73a 8a3e 0df2 2cbe 7c12 78bd 930e b63e
000000c0: 3040 8cbe 3fb1 a2bd 198a 1bbc 4928 8fbe
000000d0: a49f ddbc f126 e13d c54a 86be e189 3e3b
000000e0: 1e24 5dbe 6068 5d3e ebb9 f13d d279 94be
000000f0: bcef a03e 1fc0 82be eccf 673d 8d7d 4b3e
00000100: 8470 5d3d 8c0a 53be d77e a33e 9231 81bc
00000110: a7e9 71be 588b d33d 5980 963e 7f21 2d3b
00000120: df08 033e 795e 0dbe ba6a 8a3c 002f aa3e
00000130: eb03 8cbe 25ad e13d 3693 4abe 4781 1b3e
00000140: d525 2a3e 3942 cf3d e319 c63e f02c 553e
00000150: cbbc af3e 1a53 263d e57f 3b3e ad48 9dbe
00000160: 09ce 513e 0aa1 8bbe f4c9 a73e 1a61 b9bd
00000170: 3ea7 34be 6924 74be 2596 60bd 84d2 8a3e
00000180: 77e2 c63c f614 95bd 2953 05bd ef24 c53e
00000190: 7432 7d3e dd34 963d aa96 b4bd 92d8 8abe
000001a0: 9cbb c53e 44b0 3b3e fb18 96be 3efa 81be
000001b0: 6cc2 80bd 40bc f63d a89a 76be 7355 1abe
000001c0: 7661 a6be 6255 573e 8035 0a3c bef0 0f3e
000001d0: 48a2 5f3d 5fd3 01bc 3835 803e 2e85 9cbd
000001e0: 4282 8f3d a618 973e dfbb 223d 9ade fc3d
000001f0: 9932 8f3e c7ce 7b3e beb5 b13e 7a2a 98bc
00000200: 9d91 1a3e 4aad 2b3e 9a41 ad3e 21c9 6b3d
00000210: eff5 513e 6924 70bd a5c9 5fbd a076 713e
00000220: 7a79 ba3e 8b9f 293e 23f0 883e 8c7f 133e
00000230: e0a7 e53c 2c26 d6bd 8179 34be 41da 1f3e
00000240: 1e63 5dbe 903e 85be af4f 3e3e cfb3 243d
00000250: 4321 7f3e 581c 5ebe df5a ca3e 91e8 b73e
00000260: 750f 88be 9e66 5f3e aa70 2d3d b65e ecbd
00000270: 880f 383e 9fdc 7cbd 42e3 843e 1dc2 573d
00000280: 7d6e 3b3e 65d3 903e 8ae3 dcbe 9a48 cd3d
00000290: b949 a33c b262 f9bd 40f4 da3c 8aee 41be
000002a0: 89af 9b3e b2df be3e 8bd3 c13e fb44 87be
000002b0: 4aa7 5dbd 39f6 bb3d c396 743c c9ff babd
000002c0: 7b0a aa3e c8bf a4be 03ad b23e 8b3e 81bd
000002d0: 4277 aabe 730d a03e da00 a4be 6e91 51be
000002e0: 2e06 76be a840 2ebe fc1c 85bd 6840 75be
000002f0: 950b 8d3e 6c5e 5ebd 6005 2b3e c725 26bc
00000300: 5711 e93d 5b9d 5fbd 12fd 6c3d 8052 9b3e
00000310: f34d d3bc 0b38 b6be 4994 82be 1a25 6c3e
00000320: ec60 aa3e a956 f1bd a32b 563d 04f6 b23e
00000330: 237c 18be de15 05bd 6839 12be 78d1 163e
00000340: 44fe 9f3d 7451 603e 65d5 92bd 24d9 993e
00000350: fe4e 8fbe 70ab dcbd 8551 893e 5044 573e
00000360: 90d3 e1bd 9603 3a3e 5761 a5be c0f3 983b
00000370: 984c 9abe 3a6f 303e 101c 143e c201 a6be
00000380: d62d 05be 7ff8 c5be 704f 903b 7589 e43e
00000390: 155d 863c e046 50be e2fb a43e 06d8 6dbe
000003a0: afcb 45be 8f1c 14bd cc54 ccbd 9284 333e
000003b0: 00ec 58bd c093 e03b b07d a4bd d380 11be
000003c0: 80a7 17bd 00d8 563a 800b 9a3c 2ce1 ab3d
000003d0: b588 963e 9d5d 76be 34a7 b83e 8813 263d
000003e0: bd9c c6bd 23ad 303e dd62 973c a9a2 8fbe
000003f0: 6fa2 f2bd 1fcf 3e3c 4568 a13e a036 993e
0.29444188 0.023148475 -0.3049239 0.27156997 0.06203328 -0.16722286 0.20600928 0.20717579
-0.14978571 -0.22223163 -0.2504121 0.25180689 -0.16741657 0.0025502741 0.113719076 0.05415407
0.12469792 -0.030416995 0.23021543 0.21523607 0.3953033 -0.26404133 -0.09422874 -0.1513764
0.15186654 -0.31810933 -0.14613955 0.14637049 -0.11387529 -0.10266194 -0.12655039 -0.074844785
-0.28956297 0.109674186 0.03761089 0.18407318 -0.34641013 -0.031024026 -0.28840685 0.24815862
0.08361418 0.10244739 -0.023878777 0.37265998 0.26998016 -0.1688921 -0.060564503 0.35557994
-0.2739272 -0.07943963 -0.009493374 -0.27960423 -0.027053662 0.109937556 -0.2622892 0.0029073881
-0.21595809 0.21621847 0.11803039 -0.28999192 0.31432903 -0.25537202 0.056594774 0.19872113
0.05406238 -0.20609492 0.3193271 -0.015770707 -0.23624288 0.10329312 0.29394796 0.002641767
0.12796353 -0.1380557 0.016896594 0.33238983 -0.2734674 0.11019353 -0.19782719 0.15186034
0.16615994 0.10120053 0.38691625 0.20817924 0.34323725 0.040606596 0.18310507 -0.3071951
0.20488752 -0.272713 0.32771266 -0.09051724 -0.17641923 -0.23842014 -0.05483069 0.27113736
0.024277909 -0.072793886 -0.03255001 0.3850474 0.24726278 0.073343016 -0.088177994 -0.27118355
0.38619697 0.18328959 -0.29315934 -0.25386232 -0.06287083 0.120476246 -0.24082434 -0.15071659
-0.32496232 0.21028665 0.008435607 0.1405668 0.054598123 -0.00792393 0.25040603 -0.076425895
0.070072666 0.29510993 0.03972995 0.123471454 0.2796829 0.24590598 0.3470897 -0.018574942
0.1509461 0.16765323 0.33839113 0.05756486 0.20503972 -0.058628473 -0.054635663 0.23580408
0.36420804 0.16564767 0.2674571 0.14404124 0.02803415 -0.104564995 -0.17624475 0.15610601
-0.21619841 -0.26024294 0.18585084 0.04021054 0.24915032 -0.216905 0.39522454 0.35919622
-0.26574293 0.21816489 0.042343773 -0.11541502 0.17974675 -0.06173384 0.25954634 0.052675355
0.18303867 0.2828628 -0.4314235 0.10023613 0.019932615 -0.12177028 0.026727796 -0.18938652
0.3040736 0.3728004 0.37856707 -0.26419815 -0.054114617 0.091778226 0.0149285225 -0.091308184
0.3321112 -0.32177567 0.34897622 -0.06310757 -0.33294111 0.3126026 -0.320319 -0.20465633
-0.24025795 -0.17016852 -0.06499669 -0.2395035 0.275479 -0.054289266 0.16701269 -0.010140843
0.113802604 -0.054593425 0.057858534 0.3033638 -0.025794005 -0.35589632 -0.25503758 0.23061028
0.3327707 -0.11784107 0.05228771 0.3495332 -0.14891104 -0.032491557 -0.14279711 0.14728343
0.07812169 0.21906072 -0.07169608 0.30048478 -0.27989954 -0.107748866 0.26820007 0.21022153
-0.110266805 0.1816543 -0.32300827 0.004667729 -0.3013656 0.1722993 0.1446383 -0.32423216
-0.13005766 -0.3866615 0.004404001 0.4463612 0.016401807 -0.20339537 0.3222342 -0.23226938
-0.1931598 -0.036160048 -0.09977111 0.1753104 -0.052959442 0.0068535507 -0.080317855 -0.14209299
-0.037024975 0.00081956387 0.018804312 0.083925575 0.29401174 -0.24059148 0.36065066 0.04054597
-0.09697864 0.17253546 0.018479759 -0.28053787 -0.11847388 0.011646061 0.31524864 0.29924488

bias f4 [32]
00000000: 476f d4bd e85d a9be 97bf cbbb 0f66 3b3e
00000010: 5a1e 8dbd 937e a53e a503 703e f884 d0bd
00000020: 0794 fabd 211b 25be 3eba 85be 338c 80be
00000030: ab39 70be 92f6 173d 1a78 98be c729 7dbe
00000040: 50d9 96bd 4aa4 4d3e 300c e9bd cbff de3c
00000050: 5c20 fcbd 0800 11bd f736 93bd 188e 35be
00000060: 2311 16be 4645 383e d0d0 a1bd 7147 92bd
00000070: 324b 26be 674b 413e d856 b1be 233a f13c
-0.10372787 -0.33079457 -0.0062179076 0.18300651 -0.06890555 0.3232313 0.2343889 -0.10181612
-0.12235265 -0.1612363 -0.26118654 -0.25106964 -0.23459499 0.037100382 -0.2977913 -0.24722968
-0.07365668 0.20082203 -0.11379278 0.027221581 -0.123108596 -0.03540042 -0.07188218 -0.17729986
-0.14654975 0.17995176 -0.07901156 -0.071425326 -0.16239622 0.1887642 -0.3463657 0.029446667

weight f4 [64, 32, 3, 3]
00000000: 98dc e63c ef3f 56bd a767 8abd 2231 1bbd
00000010: a662 3bbd a2d7 66bd 3aa2 c33c 8939 413d
00000020: 1311 1dbd 7428 44bd bae1 a13c 84d0 44bc
00000030: 7c72 d5bc b6c7 e83c 2eb2 ab3c 585e 6bbd
00000040: b104 583d fb12 00bd 9d41 433d 9869 d8bb
00000050: 8728 6dbd 2869 a73c 2fdd eb3c 1001 71bd
00000060: 1a31 a8bb 715d 10bd 5139 ea3c cf1f 32bd
00000070: b047 1dbd 1ee6 afbc 7d51 28bd 8785 85bc
00000080: 2854 2d3c ce15 47bd f863 33bc a9d4 ffbc
00000090: 6163 1bbb 36f5 703a 8dcf 9fbd 7200 caba
000000a0: 56fc 6abb 5687 c43c 91cd ad3b 888a 3bbd
000000b0: 23da 4cbc 94a6 12bd 221e 15bd dd45 cb3c
000000c0: 768b 9ebd a987 1abd 568d 313b 329a 25bd
000000d0: 9da8 96bc 00d1 85bd f402 27bc b91c 75bd
000000e0: 1123 f93c bc1b 4abd 59e7 47bd 4399 ca3c
000000f0: e2b0 39bc 9754 9cba 9aa8 5dbb c67c 5ebd
00000100: f07d 063d ea49 05bd a7dd 49bc d25d a53b
00000110: 9971 b83c 8aba 91bd 352c 79bd 49e7 85bc
00000120: f400 bc3b df2a 3cbd 365b 2d3d 9685 45bd
00000130: e318 34bd 5ba7 d2bc 48c0 293d 8720 443d
00000140: f69d 61bd a093 c3bc 9bc3 4fbd 352d 1ebd
00000150: 3350 cebc 9384 bebc dcf3 0ebc f4eb 80bd
00000160: 1a48 55bd 7efa bcbb c023 56ba db05 373d
00000170: 4100 5abd c042 57ba 30bc 013b c193 563d
00000180: d792 6bbd e6aa e5bc 10ea 7dbc d826 4cbd
00000190: a73c 653d 1433 183c 57f6 5c3d 8518 58bd
000001a0: 3c52 e8bc d71d 573d dca5 8c3b 4f54 3fbd
000001b0: b2ae 6dbd 78e6 1cbc 9a1f bcbc fe83 dc3c
000001c0: 502a 5dbd aaa4 11bd c0df 31ba d67e 0bbd
000001d0: d819 0cbc 0a15 76bc 3a1c fe3b a948 ac3c
000001e0: bceb 5fbd 9c1d 783c 3197 08bd bff6 ac3c
000001f0: 2cd9 87bd 92c3 53bd b8c1 2b3c a119 d2bc
00000200: b05b 22bc 2aff 82bd 4534 22bc 58d9 4e3b
00000210: 3b44 86bd e4d3 a33a 25df 1dbd cf41 853c
00000220: 0289 42bd 5314 143d 315d e9bc 7ec6 f43b
00000230: e20d d33b 6e4f d63c 7ad6 29bc ccc5 2dbd
00000240: 4f53 3abd c1d7 4c3c 6285 37bd c4e4 13bd
00000250: f9f1 2e3d fd32 7abd 3ade 463b 1ff9 ab3c
00000260: e862 8f3b e578 cdbc ab35 b8bc f34b c5bc
00000270: 36bb e8bc fa74 67bb 79c2 9ebd 8f81 dc3c
00000280: 92d7 75bc 0a88 b4bc 4cae 83bd 81c9 113d
00000290: c77b c13c c1ab 86bd a2d2 4fbc e104 13bd
000002a0: 52c0 35bd 866b 0f3c 8078 1ebd 8a54 b13c
000002b0: d6f7 87bd 151e 89bd 4626 2abd 597a b1bc
000002c0: c315 903c f12f 5dbd 4efc 053d 6b80 ac3b
000002d0: 7f4f 113d e431 37bd 6e94 e83c 8d6b 173d
000002e0: 0a8f 993c df3c 54bd fc1a 7f3c 920e ee3c
000002f0: e62a 893c 40f3 1fbd 2cb1 dc3c ecf6 78bc
00000300: c85d d53c 288d 2f3d 9fdc 1b3d 9a7e 3a3d
00000310: 6ea0 fbbb 9285 5f3b 3cbf 4f3d e68f 02bd
00000320: e944 22bc 9cbe 90bb 3eb7 46bd 1594 debc
00000330: 7c6b 8dbd 9c24 09bd 9fdf 8dbd e896 3c3c
00000340: 7642 833b fde9 5abd 87d3 8e3c c48f a43c
00000350: 34ce 84bd 3844 99bd 053b 86bd 4b49 4fbc
00000360: 116e 473d 64a8 6bbd 8621 e53c 1257 5cbd
00000370: d4a5 26bd 6a84 c73c 9f41 4abd 1c01 403c
00000380: 72d4 18bd 6155 aa3c 7d1f 763a 8445 cd3b
00000390: 7237 b93c 5b3f 163d 4db4 ddbc 5167 9cbc
000003a0: 2d6f 69bd 87c6 7ebd daf5 9b3c da88 f03c
000003b0: f1d0 493d 9a48 30bd 8203 5bbd 6ec7 17bd
000003c0: 5acb 883c bc54 6abc 1f0e 2c3d 76e5 093d
000003d0: 0371 823b 4126 72bd 17c5 033c caee 573c
000003e0: e589 b2bc 4be9 2abc 9d7b 1e3d ab86 e13c
000003f0: ad21 3bbd 397b 07bd ef52 0a3d 988d 92bd
0.02818136 -0.052307066 -0.06758051 -0.037888654 -0.045748375 -0.056357987 0.023881067 0.04717401
-0.03834636 -0.04789014 0.019760955 -0.012012605 -0.026055567 0.028415542 0.020958986 -0.05746302
0.05273885 -0.0312681 0.047669996 -0.0066043846 -0.057899978 0.020435885 0.028791992 -0.058838904
-0.0051328065 -0.035245363 0.028591784 -0.043487366 -0.038398445 -0.021472033 -0.04109334 -0.016299022
0.010579146 -0.04860478 -0.010949127 -0.031229334 -0.0023710357 0.0009191813 -0.07803259 -0.001541151
-0.003585597 0.023990314 0.0053040464 -0.04578641 -0.01250318 -0.035803393 -0.03640569 0.024813587
-0.07741444 -0.03772703 0.00270923 -0.040430255 -0.018390948 -0.06534004 -0.010193575 -0.059841845
0.030412229 -0.049342856 -0.048804615 0.024731284 -0.011333676 -0.0011927065 -0.0033822418 -0.054318212
0.032834947 -0.032541193 -0.012320912 0.0050465846 0.022515105 -0.07115658 -0.060833175 -0.016345637
0.0057374183 -0.045939323 0.042323314 -0.0482231 -0.043969046 -0.025714567 0.04144314 0.047882583
-0.055082284 -0.023874104 -0.050723653 -0.03861733 -0.025184726 -0.023256576 -0.008725133 -0.062950045
-0.052070715 -0.0057671657 -0.00081687793 0.04468332 -0.0532229 -0.00082115456 0.0019796006 0.052387003
-0.057513084 -0.028035592 -0.015497699 -0.04984173 0.055966046 0.009289522 0.053945865 -0.05275776
-0.028359525 0.052518692 0.004292233 -0.046711262 -0.05802793 -0.009576432 -0.022964288 0.026918408
-0.05399543 -0.035557427 -0.00067853555 -0.034056507 -0.0085510835 -0.015019665 0.0077548297 0.02103074
-0.054668173 0.015143778 -0.033347312 0.021113751 -0.06633219 -0.051700182 0.010483198 -0.025646986
-0.009909555 -0.06396325 -0.009900157 0.0031562652 -0.06555983 0.0012499061 -0.038542885 0.016266732
-0.047493942 0.036152195 -0.02848682 0.007469951 0.006440864 0.026160922 -0.010366077 -0.042424962
-0.045489606 0.012502612 -0.04480494 -0.03610684 0.04271123 -0.061083782 0.003034486 0.020992814
0.004375804 -0.025082061 -0.022486528 -0.024084067 -0.028409582 -0.0035317526 -0.077519365 0.026917247
-0.015005009 -0.022037525 -0.06429729 0.03559256 0.023618592 -0.06575728 -0.012684496 -0.035893325
-0.044372864 0.008753663 -0.038689137 0.021646757 -0.06639068 -0.06695191 -0.041540407 -0.021664785
0.017588502 -0.0540008 0.03271132 0.005264332 0.035476204 -0.044725314 0.02839109 0.036967803
0.018744964 -0.051815864 0.015570398 0.029059682 0.016744088 -0.03905034 0.02693995 -0.0151955895
0.026045695 0.042859226 0.038052198 0.045530893 -0.007679037 0.0034106714 0.050719485 -0.031875513
-0.009904125 -0.0044172537 -0.048514597 -0.02717022 -0.06905267 -0.03348218 -0.06927418 0.011510588
0.0040057255 -0.053445805 0.017434848 0.020088084 -0.064846426 -0.07483715 -0.06554226 -0.012651752
0.048688952 -0.057533637 0.027970087 -0.053793974 -0.04068549 0.024355132 -0.049378987 0.0117190145
-0.03731198 0.020792665 0.00093888474 0.0062643904 0.022609446 0.036681514 -0.027063513 -0.019092234
-0.05699079 -0.06220105 0.01903813 0.02936213 0.049271528 -0.04303799 -0.053470142 -0.037055425
0.016698528 -0.014302429 0.042005654 0.033666097 0.003980757 -0.059118513 0.008042595 0.01317949
-0.021794269 -0.010431598 0.038692106 0.027530035 -0.045686413 -0.0330765 0.033770498 -0.07155913

bias f4 [64]
00000000: e672 fdbc 26fa 9abd eeda 59bb 910d 58bc
00000010: 62f6 903c 3f8c 9d3c f8c6 d53b d2cd 50bd
00000020: 078c 10bd 0ef1 83bc e257 293c e1a2 24bd
00000030: de56 0c3d 9147 723d 38f5 a9ba d272 4abd
00000040: b96a 273b b9bf c0bb aec1 b6bc 22aa 273d
00000050: 6442 11bd f274 623c ab4b f7bc 6478 9abd
00000060: c0ed d13c d5f1 40bd 3783 4abd 3efa 96bc
00000070: 6714 933d 1d27 edbc 0655 9cbd 4a88 57bc
00000080: 4847 d93b 3a35 bc3c cc42 bfbc 0ad4 d83b
00000090: 429f 48bd 0044 483c f452 47bd 8d7b c73b
000000a0: 5b58 28bd 2040 5f3c 985a 9b3b aa08 ba3b
000000b0: c4fb c1bc 77af 34bd c89b 263d 3ab4 623d
000000c0: e9b8 05bd 0206 963c d35e 14bd bff4 173d
000000d0: d51c 263d bb15 9cbd 90d2 80bd c23a 6ebc
000000e0: b7b1 e5ba 9022 99bd 2a6d 78bc d326 1c3d
000000f0: 6471 403d 9f5c fa3c dbe3 c9bc f39b a9bd
-0.030938577 -0.07567243 -0.0033242065 -0.013186828 0.01769561 0.019231914 0.006523963 -0.050977536
-0.03528979 -0.016106155 0.010335894 -0.040194396 0.03426253 0.059150282 -0.0012966758 -0.049425907
0.002554579 -0.00588223 -0.02230915 0.040933736 -0.035463706 0.013821827 -0.030187448 -0.07542494
0.025626063 -0.04710563 -0.049441542 -0.018429872 0.07181626 -0.028949315 -0.076334044 -0.013155052
0.006630812 0.0229746 -0.02334728 0.006617074 -0.048980005 0.012223244 -0.048663095 0.0060877264
-0.041099887 0.013626128 0.004741024 0.0056773024 -0.023679622 -0.04411265 0.04067591 0.05534766
-0.032647047 0.018313412 -0.036223244 0.037098642 0.04055484 -0.07621332 -0.062901616 -0.014540376
-0.0017524277 -0.074772954 -0.0151627455 0.038122963 0.046983138 0.030561743 -0.024644783 -0.08281698

weight f4 [128, 64, 3, 3]
00000000: fdfb f43c de52 12bd 1a24 1bbc b146 333c
00000010: 994f cbbc 402b 70bc ebc6 d0bc 1084 fa3c
00000020: 56ad a8bc a063 fdbc 710c 2fbd 6784 93bb
00000030: 5f47 913c 4851 7cbc b905 c03c 5a6b 8b3c
00000040: bdf4 0ebd aa24 54bb 887b 513c 3a26 f6bc
00000050: 39a3 36bd 2ea2 e53c eaa2 fd3b 84e2 f639
00000060: 5995 dc3c 0c6f e7bc 846f 92bc da62 e4bc
00000070: fbda fbbc 80cb e13b eccc 133c 80cc 0e3c
00000080: 7063 53bb bf4f 3fbd abe3 093d ca3d 26bd
00000090: 7121 0c3d 764c 66bc 1b62 0cbd ec95 713c
000000a0: 51be 1b3d cd0c 233d 4e6a af3c cab9 1abd
000000b0: 029b ae3c 5803 abbc 156b 1dbd 329f 5fbd
000000c0: 6b0a dcbc 0b4a a3bd e252 13bd c09d 86bd
000000d0: 85d2 c23b a869 443d 41a3 2a3d 325c db3c
000000e0: 1987 2a3d 98dd d3bb 4263 b73c 9e7a ebbc
000000f0: dc03 32bc 88c6 15bd 3ebb a33c 4012 a3bc
00000100: 28a2 fd3a 2a94 dfbc 7adc 2f3c ab15 713d
00000110: 839b ccbc 34a2 3f3d df9c aa3c 5913 52bd
00000120: 68e5 b3bb febc 81bd 74bc 4bbd 0489 85bd
00000130: 1def babd e2dc e73c 6564 63bd 0952 653c
00000140: 04aa 6abd d6d7 d03c 3c26 ddbb 0841 10bd
00000150: bcd5 203c fa4c d33c a984 f83c 851d a53b
00000160: 1bc3 9b3c 8b94 22bd 9667 14bc 2823 883c
00000170: 7c25 41bd 2521 093d 9c48 9dbb 2b68 c9bc
00000180: d368 b1ba 78f4 dc3c 912b a53c fccf 133c
00000190: f6c6 67bc 6805 fcbc 4471 193c 84d6 06bc
000001a0: 4af3 fd3c 7712 083d 60c9 dcbb 460d 95bc
000001b0: 526f c83b f9d4 48bc ac73 f33c 84d1 e23c
000001c0: a6e5 913c f616 4fbc 3bb7 a9bc 9f25 263d
000001d0: 0a51 463d c55a 753b 40b0 4dbd aa0e 41bd
000001e0: 01c7 87bd 9604 85bd a3db d73b 7cae 703a
000001f0: f787 b3bd 951b 94bc 1fb7 25bd 80d3 65bc
00000200: 90e4 eebc 2869 05bd 70f2 6e3b 6c48 13bd
00000210: b06f 5b3c 10f1 b1bc 5029 333c 6acf 65bc
00000220: 912a 0c3d 941b b0bc b531 aabc 01ec d13c
00000230: 15b2 b1bc fd98 653c d84b 6a3d 26f0 213d
00000240: d367 86bc 66a0 49bd fc59 acbc 725a d2bc
00000250: f1e1 3cbd 59c5 9cbd e60c abbc 595d 83bd
00000260: 1bdc 9fbd 6f26 6cbd ae4b 8cbb 351a a13c
00000270: 7ee6 7abd 87d1 8ebd ca2b 3fbd 7eaa afbd
00000280: 51bf 02bd 9ae1 d3bc fa21 c83c e049 faba
00000290: 6bbb f5bc 249d 1abc d5f6 143d 0cf6 0f3c
000002a0: f738 0f3d d8e0 82bb b2ef ce3c 3f58 11bd
000002b0: eb46 a5bd f1b1 8cbd e382 17bd ffa8 41bd
000002c0: d6de 0cbd 818d 7cbd 1d2e 42bd 4af2 fd3c
000002d0: d3bb ce3b 7f1f 473c d4dc 01bd b6f1 123d
000002e0: 5e0d 003d c267 b43c 0025 a1bc c103 73bb
000002f0: d9bf 9fbb ccfa b1ba 8d03 123d 2c11 f23c
00000300: 3185 1cbd d53c 083c 8a14 87bd 99a7 8bbd
00000310: 091a 32bc c960 8abc 04ff 513c 28cc febc
00000320: e486 663c 2072 47bc 78f1 87bb b41a 02bd
00000330: ba73 f53c ec3b 093c 434e efbc 5631 59bc
00000340: b787 b0bc 36dd da3c 6eb8 1bbb abda 81bc
00000350: f7b4 c1bc 47ad 25bc 4533 c73c 47d2 ccbc
00000360: dcf7 87bd 0fef 9abd 66dc 10bd 812c 043a
00000370: 85d1 38bb ef2c 6dbd 0cfc 8738 8cba aebc
00000380: bf6e 1bbd 028f 11bd 7e1a 9ebc ec89 27bc
00000390: 7438 17bd de80 c53c df76 12bd 83fc 05bd
000003a0: b681 f6bc 608c b63b 31fd 793c 1eb8 d3bc
000003b0: e829 fcbb 7849 0bbc 2e91 913c 48c2 ae3b
000003c0: 8abb bc3c 9abd e3bc 2054 943b 4d0d cfbd
000003d0: c625 2fbd 4bcf 89bd 05f3 b8bc 4bf1 98bd
000003e0: 6a0b c2bd 14b7 31bd e845 9ebd 3edc bdbd
000003f0: decf d83c e5f9 673c b865 c3ba 1ef4 0abd
0.029905314 -0.03572356 -0.0094690565 0.010942147 -0.024818229 -0.014658749 -0.025485476 0.03058055
-0.020590466 -0.030931294 -0.042736474 -0.0045018676 0.017734228 -0.015400238 0.023440229 0.017018963
-0.03490137 -0.0032370486 0.0127858 -0.030047525 -0.044589255 0.028031435 0.007740368 0.00047089544
0.026926683 -0.028251193 -0.01787544 -0.027879167 -0.030744066 0.006890714 0.009021025 0.008715749
-0.0032255314 -0.04670691 0.033664387 -0.04058627 0.03421158 -0.014056316 -0.03427325 0.014745217
0.038023297 0.03980713 0.021412995 -0.03777484 0.021314148 -0.020875618 -0.0384322 -0.05459518
-0.026860436 -0.07973107 -0.035967715 -0.06573057 0.005945506 0.047952324 0.041659597 0.02677736
0.041632745 -0.006465625 0.022386197 -0.028744992 -0.010865178 -0.036566287 0.019986745 -0.019906163
0.0019350694 -0.02729233 0.010733718 0.058858555 -0.024976498 0.04678555 0.020826755 -0.051287983
-0.005489994 -0.063348755 -0.04974027 -0.06520274 -0.091276385 0.028303567 -0.055515666 0.0139966095
-0.057291046 0.025493544 -0.0067489427 -0.03521827 0.009816583 0.025793541 0.030336695 0.0050389194
0.019013932 -0.039692443 -0.0090579 0.016618326 -0.04715489 0.033478875 -0.0047999155 -0.024585804
-0.0013535268 0.02697204 0.020162376 0.009021755 -0.014146557 -0.030764297 0.009365384 -0.008229855
0.030999798 0.033220734 -0.006737873 -0.018194806 0.006116786 -0.012257808 0.029718243 0.027687795
0.0178097 -0.012639752 -0.020717254 0.040563222 0.04841713 0.0037438136 -0.050216913 -0.047133125
-0.06629754 -0.06495015 0.006587462 0.00091812736 -0.087661676 -0.018079558 -0.04045784 -0.014027476
-0.029161721 -0.032570988 0.0036460422 -0.03595774 0.013393328 -0.021721393 0.010935143 -0.014026502
0.034220282 -0.021497525 -0.020775655 0.02562523 -0.021691361 0.014013526 0.057201236 0.039535664
-0.01640693 -0.049225233 -0.021039002 -0.025677893 -0.046113912 -0.076548286 -0.020880174 -0.06414289
-0.07805654 -0.05765384 -0.0042814827 0.019665817 -0.06125497 -0.06973558 -0.04667262 -0.08577441
-0.031920735 -0.025864411 0.024430264 -0.0019095503 -0.029996594 -0.009436879 0.03636821 0.0087866895
0.034966435 -0.0039940886 0.02526078 -0.03548455 -0.08070167 -0.06869877 -0.036990058 -0.047280308
-0.0343922 -0.061658386 -0.04740726 0.030999321 0.0063090115 0.012153505 -0.03170474 0.035875045
0.031262748 0.022022132 -0.019670963 -0.0037081095 -0.004875165 -0.0013578772 0.035647918 0.029549204
-0.03821296 0.008315285 -0.065957144 -0.06819076 -0.010870465 -0.016891854 0.012817148 -0.031103209
0.014070246 -0.012173206 -0.0041486584 -0.031763747 0.02996241 0.008376103 -0.029212123 -0.0132563915
-0.021549089 0.02671681 -0.0023761052 -0.01585134 -0.023645861 -0.010112113 0.02431644 -0.025002612
-0.06639072 -0.07565128 -0.03536644 0.0005042032 -0.0028201055 -0.05790418 6.484249e-05 -0.021329187
-0.037947413 -0.035536774 -0.019299742 -0.010225754 -0.036919072 0.0241093 -0.035757896 -0.032711517
-0.030091148 0.005570933 0.015258119 -0.02584463 -0.0076954253 -0.008501403 0.017769422 0.0053332187
0.023038644 -0.02780037 0.00452663 -0.10109959 -0.042760633 -0.06728991 -0.022576818 -0.07467898
-0.09474833 -0.043387488 -0.07728177 -0.092705235 0.026466306 0.014158701 -0.0014907634 -0.033924215

bias f4 [128]
00000000: 4e1e 94bc e174 3ebd 0c51 19bc 3e7c b3bd
00000010: 7edb 7cbb 51c0 e3bb c1fc 0dbd 73d5 5c3d
00000020: 9ec9 9abd 7678 903c 99a4 9aba bfd3 57bd
00000030: 09ba b83b d4f4 46bd c8bb 09bc edf6 12bd
00000040: 3ff1 1abd 722a 2b3d 9fde b83c d145 09bd
00000050: b3c0 093d 87ff 9bbc a303 32bd 2b41 f8bc
00000060: 7248 58bc df23 86bc 5a6a 87bc d9d9 3e3d
00000070: ae84 a03c ba8d b6bc 64a8 07bd 693a 8c3b
00000080: 3b89 82bc b138 a13d 6519 c53b 826d 06bd
00000090: c638 983c 27b6 85bb 0216 063b 1f71 a1bc
000000a0: bf0d dbbd a462 003d d209 c8bc 1a17 463d
000000b0: 3551 12bd 7fa2 8c3c 0b72 3b3c a4ec 503d
000000c0: d57d 7ebd 6908 9a3d 5757 5abd 2146 58bc
000000d0: 31c2 453d 7d9f a1bb dcee a0bc 131c bbbd
000000e0: 9919 8d3b 35df 4ebd 66c7 d53c f638 abbd
000000f0: 08a3 06bd 264c b9bc 0505 fdbc 32c9 693d
00000100: 4516 22bd f960 b2bb 08c9 833c 26c6 56bd
00000110: 3302 b8bc 2017 c23c 3876 8bbb f190 8dbc
00000120: 7380 25bd cc34 1fbd 7271 863d a62a 4e3d
00000130: 1435 e83c e471 bfba c5ae 1fbc 2174 a9bb
00000140: e71d 28bd 415a 48bb 9163 3ebd f14f 96bc
00000150: 1032 50bd bb35 1d3d 5e08 ae3d 557a 80bc
00000160: 2c7e 7cbd 023e 65bc 4a2d 2dbd b4cf 4c3c
00000170: 46e9 c039 3d56 3dbd 3cef 04bd 0b01 2f3c
00000180: 18e6 0bbd bb29 643b 0455 753d c0bb 10bd
00000190: 74bb 26bd a674 c33c 06b2 7a3b 3d6b 01bd
000001a0: 0369 1fbd dd83 9e3c c024 2b3b 1e2a 9c3d
000001b0: a1c4 31bd c28b 86bc b14b 8d3c dade 92bb
000001c0: 1522 a43c 0d1c 9abb d792 4bbd ef29 003d
000001d0: d78c 0abd 200d 0bbd d4ed 80bd 5496 613c
000001e0: 80e5 1fbc 3a0b a63d bf24 7a39 b869 d0bb
000001f0: fa50 1b3d b35d 393d a91d ccbd 9688 c0bc
-0.018080857 -0.046498183 -0.009357702 -0.08763932 -0.0038582976 -0.006950416 -0.034664873 0.0539145
-0.07557987 0.017635565 -0.0011798322 -0.05269217 0.0056374115 -0.04857333 -0.008406587 -0.035880018
-0.037827726 0.041788526 0.022567092 -0.033513848 0.033631038 -0.019042743 -0.0434605 -0.030304512
-0.013200866 -0.016374527 -0.016530205 0.046594474 0.019594517 -0.022284377 -0.033119574 0.004279424
-0.015934577 0.07872141 0.00601499 -0.03281928 0.01858176 -0.004080552 0.0020459895 -0.01970726
-0.10695981 0.03134407 -0.024418745 0.048361875 -0.035721976 0.017167328 0.011440764 0.051006928
-0.06213172 0.07521135 -0.05330595 -0.013200314 0.0482809 -0.0049323426 -0.019645147 -0.09136214
0.00430603 -0.050505836 0.026096057 -0.08360474 -0.032870322 -0.022619318 -0.030886183 0.05707664
-0.03957202 -0.005443689 0.01608707 -0.052435063 -0.022461986 0.023692667 -0.004256036 -0.017281028
-0.0404057 -0.03886871 0.06564607 0.05033364 0.028345622 -0.0014606086 -0.009746258 -0.0051713143
-0.041044142 -0.0030571374 -0.046481673 -0.018348666 -0.050828993 0.03838132 0.0849769 -0.015683332
-0.061643764 -0.013991835 -0.04227952 0.012500692 0.00036794896 -0.04622482 -0.032454714 0.010681401
-0.03415498 0.0034814912 0.05989553 -0.035335302 -0.040706113 0.023859333 0.0038253083 -0.03159641
-0.038918506 0.019349987 0.0026114434 0.07625221 -0.04340041 -0.016424064 0.017248007 -0.0044821324
0.020035783 -0.004703051 -0.049700584 0.03128999 -0.03382572 -0.033948064 -0.06295362 0.013768751
-0.009759307 0.0810761 0.00023855547 -0.006360259 0.037919022 0.045255374 -0.09966595 -0.02350263

weight f4 [512, 128]
00000000: 27f8 a03b 9f5c 133e 3bb6 353d 60f2 e1bc
00000010: 993b 593c de5e aa3d 2c3c 443d efef b9ba
00000020: 726c 353d 408e 633d 0239 e1bd 6a89 62bd
00000030: 7cb7 c03c 51cc bf3d dc9b a93d e24c 413d
00000040: 6ba0 23bd 7b9e ad3d 7957 fa3c 6d51 973d
00000050: 6143 bcbd a399 863d 9a24 5c3d 41c2 a2bd
00000060: e03f 113e 5e81 0d3d d69e 7e3d 14fd e4bd
00000070: 582f 8abd 9104 873d fef1 5e3d 835d 183d
00000080: 9dbd 31bd 6a73 913d 5c7b 9f3d eed7 333c
00000090: a777 0abb e920 f33c b700 abbd 259d 78bd
000000a0: 6be5 b43d 9a14 05be c19c 08bd cf2a 653d
000000b0: 133c 0d3e d9ca a93d a7ad 25bc e670 4fbe
000000c0: d6f4 97bd 8c96 703d 5fee 873d 73b2 a1bd
000000d0: 5594 2a3d c858 743c 4b9f ef3c 73ab b539
000000e0: 3f1a 1dbd af41 ff3c eebe 103c 4407 de3c
000000f0: 60cf b13c 966c a13d 7791 693d 18e7 90bb
00000100: 55cc 693d df7a 72bc f34a 343d 8a32 8ebc
00000110: abd8 d5bc 59e9 10bd 34fc f93d 20c8 15bd
00000120: db68 133d 3057 dd3a 1b08 bcbc a819 803d
00000130: ecd9 4cbd a53b a63a e5f3 843c 10d4 3b3d
00000140: 768a 863d 7ce4 23bd 6d82 503d f682 1d3c
00000150: d2db c439 6167 133e 8ad1 8fbd 334c 0cbd
00000160: 25e2 b4bd 3a3a 293d 8455 a3bd 0a8d cf3d
00000170: f831 24bd 48f6 8cbd 87fb 5dbd ca01 a53d
00000180: 8dd0 bcbc b94a bd3d 1eca 09be 754a f73c
00000190: d391 cfbd 3ce6 e23d 16f1 783d 96b6 92bd
000001a0: 990f 383e 5231 1b3d 8ae1 81bd d30c ed3d
000001b0: c95a a7bc da4c c9bd 1aec 393e 4063 39bd
000001c0: 85bc 1dbd 1da6 31bd 832d 03bd f985 3bbd
000001d0: 82b1 ffbc 8a3c ab3d b2df 8abd f55e 71bd
000001e0: fab0 8db9 d1d8 093e ac12 a93d bdf8 593d
000001f0: fbad 27bd 29ed f5bd 558c cc3d f2a6 493d
00000200: 7ff7 8b3c da54 9b3c d2a0 21bc f09e 913d
00000210: 0fd8 c33d ab35 bc3c c156 b73d e31f d33d
00000220: 2235 703d 9cc4 b73d aa42 593d ab0e 85bb
00000230: 5ec3 cc3c f489 1a3d 6176 ed3c ae48 843d
00000240: 1add 68bd 049c 87bd 5c44 513d c4dd a5bd
00000250: 1515 ba3d 80dc 5bbd 1496 013e 3ff6 713c
00000260: d755 0abd dbfd 6ebd eed6 ab3d 38f4 ffbc
00000270: 117b 72bd f8ac bebd e552 2dbc 10e9 49bc
00000280: 6a14 65bd 7987 753d 9375 48bd 139f 1ebd
00000290: dfa4 fc3c dc70 6b3c 5ede 043c 8c67 89bd
000002a0: f8d7 b1bc c4a4 dabd 3d6a 5b3c 63ac b7bd
000002b0: 5ae6 453d d4db 013e 52b3 82bd 00be 1bbe
000002c0: 1bb9 ebbc 3359 5c3d 2fdc e3bc bc2a 143d
000002d0: 0745 93bc b30d 873d c443 d4bc 5ee2 203d
000002e0: 9542 4abd 9f50 aabd 2db6 10bd 4293 683d
000002f0: 04d3 803c 3336 15bd 67f3 fbb9 e22e 9cbd
00000300: d3e1 de3c 4d91 1cbc 9096 b6bd f8d1 013d
00000310: 074f 8fbd 20e6 023c 1b6a a33d 2d40 dfbc
00000320: 6a43 cfbd cd71 9bbc 02e5 1e3c e4a9 073e
00000330: d914 083d c5b3 7939 bcc3 68bc 8273 fcbd
00000340: b97d a63d d0c3 6fbd 8d09 e0bc 2226 97bd
00000350: b88b 0bbd 7357 bd3d f42c 873d c800 cbbc
00000360: ebc7 f4bd f59c 963d 0244 32bd 04af 3d3d
00000370: 56b7 103c c012 a53b c5df 843d 1815 d73c
00000380: ee9b 21bc 63a9 513d f214 c43d 750d 1f3d
00000390: 824f 04b9 1290 0c3e 0748 e33b 245e 703b
000003a0: d13c 1e3e 5a1d a53c 7c37 0dbc 8500 b93d
000003b0: 1c81 13bd 6c74 6d3c 8002 e83d 0179 5a39
000003c0: c97a e5bd 72e4 76bd e569 d13c fcb2 08bd
000003d0: dc59 9cbb e8a2 133e cdbd 93bc 82dd 00bd
000003e0: f1b6 273d d90c 433d 3ea5 d6bb 35a4 bdbb
000003f0: df86 1e3c 7c71 d83c 7ef5 b03d 3abd 86bd
0.0049123946 0.14390801 0.04436324 -0.027581394 0.013258838 0.08318876 0.047908947 -0.0014185886
0.044292875 0.055555582 -0.109972015 -0.05530683 0.023524992 0.09365142 0.08281681 0.04719246
-0.03994791 0.084774934 0.030559288 0.073885776 -0.09192539 0.06572273 0.053745843 -0.07947207
0.14184523 0.034547202 0.062163197 -0.11181083 -0.06747311 0.06592668 0.05443 0.037198555
-0.04339372 0.071020916 0.07787201 0.010976775 -0.0021128447 0.029678779 -0.08349746 -0.06069674
0.088328205 -0.1299614 -0.033352617 0.05594903 0.13792448 0.08290643 -0.010112203 -0.20257911
-0.074197456 0.058737323 0.066372626 -0.078953646 0.041645367 0.014913745 0.029250761 0.0003465075
-0.03835511 0.03115925 0.008834584 0.027103074 0.02170533 0.07882039 0.05702349 -0.00442208
0.05707963 -0.014799803 0.04401679 -0.017358083 -0.026104292 -0.035378788 0.12206307 -0.036567807
0.03598867 0.0016886946 -0.022953084 0.062548935 -0.050012514 0.001268257 0.01622958 0.045856535
0.06569378 -0.04001282 0.050905634 0.009613743 0.00037547812 0.14394905 -0.07022388 -0.034252357
-0.08832196 0.041315295 -0.07975295 0.10134323 -0.040086716 -0.06882912 -0.054194953 0.08056982
-0.023048664 0.09242768 -0.13456008 0.030186871 -0.10135236 0.1107907 0.060776792 -0.07163732
0.179747 0.037888832 -0.06341846 0.11574712 -0.020429032 -0.098291114 0.18156472 -0.045260668
-0.038509864 -0.04337131 -0.032025825 -0.045782063 -0.031212572 0.08361156 -0.06780948 -0.05892845
-0.00027025474 0.13461615 0.082555145 0.05321573 -0.040937405 -0.12008125 0.09987704 0.049231477
0.017085789 0.018961359 -0.009865003 0.07110393 0.09562694 0.02297481 0.08952094 0.10308816
0.05864442 0.08973047 0.05304209 -0.0040605864 0.024995502 0.03772922 0.028987112 0.06459175
-0.056851484 -0.066215545 0.051090583 -0.08098939 0.09086052 -0.053677082 0.12654907 0.014768182
-0.03377327 -0.058347564 0.08390604 -0.031244382 -0.059199397 -0.09310335 -0.010578846 -0.012323633
-0.05592767 0.05994365 -0.048940253 -0.038725924 0.030840335 0.0143701695 0.008109657 -0.06709203
-0.021709427 -0.10675958 0.013392028 -0.08968427 0.048315383 0.12681514 -0.06381859 -0.15209198
-0.028774789 0.053796005 -0.027814953 0.036173567 -0.01797725 0.0659441 -0.02591122 0.03927838
-0.049379904 -0.083161585 -0.035329986 0.05678106 0.01572562 -0.03642864 -0.000480558 -0.0762613
0.02720729 -0.009556127 -0.08915436 0.031694382 -0.06997495 0.007989436 0.079792224 -0.027252281
-0.1012028 -0.018975163 0.009698154 0.13248402 0.033223007 0.0002381346 -0.014206823 -0.12326719
0.081294484 -0.05853635 -0.027348304 -0.0738032 -0.034068793 0.09245195 0.06600371 -0.024780646
-0.11952194 0.07354156 -0.04352189 0.046309486 0.008832773 0.0050376356 0.06487993 0.026255175
-0.009863837 0.05118693 0.095743075 0.038831193 -0.0001261812 0.13726833 0.0069360766 0.0036677206
0.15452887 0.020155597 -0.008619186 0.09033302 -0.0360118 0.014493089 0.11328602 0.00020835178
-0.1120506 -0.060276456 0.02556319 -0.033373818 -0.0047714543 0.14417613 -0.01803484 -0.031461246
0.04094595 0.047619674 -0.00655046 -0.0057873973 0.00967571 0.026421301 0.08640574 -0.06579061

bias f4 [512]
00000000: 17a4 04bd fb4d 733b d947 bf3c 9233 693d
00000010: db29 d6bd d3fc 803d 1143 a13c 45d8 a2bb
00000020: c211 4dbd 8b17 093d 76c8 0d3d 751d 62bd
00000030: 6928 ba3c f29f 3abd 3cf9 ebbc adcd 8b3d
00000040: 7d0d 223d dce1 47bd e02d 053e 8efc 093e
00000050: 8228 723d 39b8 c0bd f081 e63d 1773 1cbd
00000060: ab5b 7d3d 33a8 3f3c 79a8 7a3c c356 00bd
00000070: 47c2 7ebd 3c81 a63d ecc1 afbd bb7b 84bd
00000080: 6bf3 b23d b47b 923d 32f1 893d 326b a1bd
00000090: c468 193d b09c 3ebd d50d 173d 6503 e63c
000000a0: 1fcd 0fbd c4ab 9bbd 2659 103e a01d 073e
000000b0: 22aa 4abd f6a1 6a3d fd40 8dbd 4bd4 2fbd
000000c0: c018 b43c ab75 fa3d 78bf a03d c059 193e
000000d0: f9d1 563d 205f d83d 5f88 753d ff9a 923d
000000e0: 62d6 09bd 2913 dbbc fc2d dc3d 6ced 853d
000000f0: e4bb d53c a2d0 fd3d 8730 313e dd70 453d
00000100: 2408 813d a3af 853d d72b 9abb 6457 e63d
00000110: c68a dfbc 2621 dc3d 5b4c 623d 45f7 d9bc
00000120: 933d 2cbd 3f50 983d 23ea 9f3d f080 a8bd
00000130: 10ed 013e 36de 943d 6ef6 2c3d 1209 0c3d
00000140: 5d39 efbd 5fa2 ea3d 6b64 f6bd 75f5 8bbb
00000150: 8de4 8bbd 6f96 073d 2124 d63d 9b77 413d
00000160: 9989 7a3b 1449 873d 699d a73d 648c 88bd
00000170: 06ad c43d 2bec 443d d43b e33d d3cd debc
00000180: dc9a 283e 8463 0b3e d15d f43c e54d 2a3e
00000190: fd07 f13c bb34 debd 1be3 9cbd 7325 9dbd
000001a0: 1e3e 133b d295 2a3e 2079 c23d 7add b6bd
000001b0: 483b 9ebc 81ab 5f3a e0a0 2ebd c8d3 513d
000001c0: 7fd3 a13d 2fd5 2b3d a438 b9bd d6a3 10bd
000001d0: d7bb cbbc 3448 c8bc c3ba 87bd b094 c1ba
000001e0: 1fa9 4f3d f4e4 80bc 7a12 b0bd 5d11 643d
000001f0: 87d9 e4bc c097 99ba 695a 8c3c 3e19 6b3c
00000200: 44be a2bc a917 0d3c c436 59bd 1ee6 9c3d
00000210: 8f39 a2bb 4236 bf3d ffed 56bd 5a7b 103d
00000220: cf6b 27bd 08af bebd 9ace 40bc f93f 9abd
00000230: b209 233e b226 223d 7d41 163d c624 4cbd
00000240: b0af 273e fff4 9b3d 401e dabc 4df4 0ebc
00000250: 187f 0f3d daa7 053e 0d72 24bc 58a6 053d
00000260: 5ab6 c0bb 9bf2 3dbd 3fad 4c3e 5e36 2ebc
00000270: 3e78 873d 4f4d 8ebc 551a 0a3e 9c6e 2ebd
00000280: 2b76 1d3e 0e8e 2abd 82f2 a0bc 084d 043e
00000290: e25d 84bc d21a 60bd 7cd7 b83d 8a09 a3bc
000002a0: bf9b 3dbd 2b1f ffbc 4f9c c3bd 6f2b 2fbd
000002b0: 1419 f8bb fc65 fd3d 41f7 b93d 8762 c3bc
000002c0: fbc5 ed3d 4e54 183e ebc8 adbd 8489 e23d
000002d0: 64af 803d af85 b43d 1cd9 4fbc 7ae0 c9bc
000002e0: e256 093d 8c77 b9bd 4f4d 353c 9865 193d
000002f0: 3d17 18be 9397 84bd e730 acbd 31a4 4fbd
00000300: afd7 94bd 3675 cabd 7efc 193d 9ae6 883d
00000310: 0350 153e 82f9 353e 1c29 0c3e 9dce de3c
00000320: 3b8d 243c e7fe 823d 097f 8c3d b589 8a3c
00000330: fd8c a73d 23e0 f53c acc5 08be e7ea acbc
00000340: 8bb0 cf3d 6ff8 083e 73bb 1e3d edc8 2fbc
00000350: b04a 8ebd 484c 83bd dae5 a1bd 03c7 4fbd
00000360: cab8 cc3d 6556 553d 5870 cb3c d24c a53d
00000370: 966c 87bd 27e6 5e3d 2c2c a9bd 6655 b33c
00000380: 3a8d 1bbd 0092 5bbd a5f7 993d 021d 8ebd
00000390: c435 163c 78de 41bd a8ec d5bd d737 1c3e
000003a0: 6c20 103e c8f7 b5bd 4414 473c 0cfe 8bbc
000003b0: c639 97bd bae9 a7bd 4fbc 2b3d 73c7 e3bd
000003c0: 0611 2f3b 7d20 483c c4b6 bfbd f7dc acbc
000003d0: 5776 28bb c789 a2bc 77cd 56bd a5e1 26bd
000003e0: 3522 8f3c 66e2 b43d 468a ebbc 3c77 e0bc
000003f0: d574 cf3d d1eb 95bd 01ee b23d 25a7 52bd
-0.03238305 0.0037125337 0.02334969 0.056933947 -0.10457202 0.062982224 0.0196853 -0.004969629
-0.050065763 0.033469718 0.034615003 -0.055203874 0.022724347 -0.045562692 -0.028805368 0.06826339
0.039563645 -0.04879938 0.13005781 0.13475248 0.059120663 -0.09410138 0.11255252 -0.038195696
0.061855 0.011697817 0.015298956 -0.031332742 -0.062196996 0.08130118 -0.085819095 -0.06468912
0.087378345 0.07152501 0.067354575 -0.07881774 0.037453428 -0.046536148 0.036878426 0.02807779
-0.035107728 -0.07601121 0.14096507 0.13194895 -0.049478658 0.057283364 -0.06897161 -0.042927068
0.021984458 0.12229475 0.0784902 0.14975643 0.05244634 0.10565019 0.059944507 0.071584694
-0.033651717 -0.026742535 0.10750958 0.06539425 0.02609057 0.12393309 0.17303668 0.048203338
0.06300381 0.06527641 -0.004704933 0.11247137 -0.027287852 0.1074851 0.0552486 -0.026607165
-0.04205091 0.07437181 0.0780833 -0.08227718 0.12688088 0.07268946 0.0422272 0.034188338
-0.11680863 0.11456751 -0.12030872 -0.004271204 -0.06830702 0.03310245 0.1045611 0.047233205
0.0038228987 0.066057354 0.081843205 -0.066674024 0.09603314 0.04807679 0.11095396 -0.027197754
0.16465324 0.13612181 0.029829891 0.16631277 0.029422754 -0.10849901 -0.076605044 -0.076731585
0.0022467445 0.16658714 0.09495759 -0.08928962 -0.019315377 0.0008532331 -0.04263389 0.05122736
0.07901668 0.041951355 -0.090440065 -0.035312496 -0.024869842 -0.024448492 -0.06627419 -0.0014769044
0.050698396 -0.015734173 -0.08597274 0.05568062 -0.027935756 -0.0011718199 0.017132955 0.01434928
-0.019866116 0.008611598 -0.053030744 0.07661079 -0.004950709 0.09336521 -0.052473065 0.035273887
-0.0408743 -0.09310728 -0.011768008 -0.07531733 0.15921667 0.039587684 0.03668355 -0.049839757
0.16375613 0.07615089 -0.026625752 -0.008725238 0.035033315 0.13052312 -0.010036957 0.03262934
-0.005881113 -0.046373945 0.19987963 -0.010633079 0.06614731 -0.017370848 0.13486607 -0.042585954
0.15377109 -0.04163938 -0.019646887 0.1292001 -0.016158048 -0.054713078 0.090254754 -0.01990201
-0.04629111 -0.031142792 -0.09551298 -0.04276603 -0.007571349 0.123729676 0.09080363 -0.023850692
0.116100274 0.1487591 -0.08485588 0.11061385 0.06283453 0.088145606 -0.01268604 -0.024643172
0.033530124 -0.09056005 0.011065795 0.037450403 -0.14852615 -0.06474223 -0.08407765 -0.050693695
-0.07267701 -0.098856375 0.03759431 0.06684609 0.14581303 0.17770961 0.13687557 0.02719813
0.010043438 0.06396275 0.068601675 0.016911367 0.08181188 0.030014103 -0.13356656 -0.021108104
0.10141095 0.1337602 0.038752984 -0.010729057 -0.06947839 -0.06411034 -0.07905169 -0.0507269
0.09996183 0.052084345 0.024833843 0.08071293 -0.06612508 0.05441871 -0.08260378 0.021891307
-0.03797648 -0.053606033 0.075179376 -0.069391266 0.009168092 -0.047331303 -0.10445529 0.15255676
0.14074868 -0.08885151 0.012150828 -0.017088912 -0.07384066 -0.08198877 0.041927632 -0.11122026
0.0026713028 0.012214777 -0.09361032 -0.021101458 -0.0025705302 -0.019841088 -0.05244204 -0.040742535
0.017472366 0.088322446 -0.028752457 -0.027400605 0.10129706 -0.07320369 0.08736802 -0.051428933

weight f4 [5, 512]
00000000: 2799 7c3d df5a a73b 3646 12bd a6e5 7f3c
00000010: 41c8 623b a134 81bc 9489 afbd 107a 713c
00000020: 4114 edbc dfcd 8fbb bb08 b43c fe97 97bd
00000030: 932b 813d 0028 42bd 1f19 8e3c ef9c 77bd
00000040: b010 4fbc 841f 923b f63f 1cbe 120e ae3d
00000050: a23a 0c3d 1f5b 1d3b ccd6 4bbe 629c 83ba
00000060: c559 b6bd 047a b6bc 5dff b73d e0e4 3c3c
00000070: 9449 ef3c 86b1 be3d e75f 25bd b83f 083d
00000080: 2139 8b3d e070 033e a522 21be 6d02 22bd
00000090: d426 173d 3a8b bfbd 3c42 6f3c 1cd9 14be
000000a0: 47fb 313d 0ca9 883d d9ca e83b 1cc2 fd3c
000000b0: 0fcf cfbc 189e 0bbd 60f4 1bbc db37 9fbd
000000c0: 0393 8bbc f34d c03c 1f3d 5a3c 10e8 8a3d
000000d0: d8b4 f63c c7f8 9abd 33e5 fabc de6b 21bd
000000e0: b96e 013e b9d8 1fba b392 833d 1ebd 86bc
000000f0: 64b8 253d 91b3 a53c 6fd4 c9bd 5ebe f9bd
00000100: 9677 68bd bb01 0a3e 5c47 a23c 7ce1 b239
00000110: 21e8 c53d add2 f5bb f8a1 a63c b413 3abc
00000120: 482c 92bd c2f2 993d 5bb6 ab3d 26b7 f5bc
00000130: 7346 73bd 755f 41ba 6de2 1a3d 46ce 7b3d
00000140: 4c5f b53c f5fb 2b3d 94d2 8bbd 79a6 1e3d
00000150: db58 293d 66bb 9fbb 13e5 3d3e ec04 1a3c
00000160: dc4b 9b3d a9e9 fcbd 9c97 433e 9a36 ff3b
00000170: 0af5 56bc 5732 a0bd a494 75bd 5dbd 1bbe
00000180: 81c9 bd3d caf7 cdbc 2af1 883d 584b 7a3b
00000190: ad68 8b3d 0f12 2b3d 4e6d ccbc 24cb 9b3c
000001a0: ef50 5a3b f84e 94bd 3097 a33d 8996 a93c
000001b0: a3a7 77bb 6c0f 2ebd 3b8b 4d3c 98ba 0f3e
000001c0: deb4 38bc df3a 10bd 778c bf3d a7b7 03bd
000001d0: dc9a 95bb b427 ecbd a071 58bc ad8c ddbc
000001e0: aa89 f73d fbb9 3bbe b8fb 16bd c8fe 183d
000001f0: 2e02 08bd 74ac 6dbb e6fe 78bc 553d 4e3d
00000200: 0726 1b3e ac02 cbbd 345c a4be 71d6 8f3d
00000210: c09a d93c a77f ebbc 13bf a83d e71b 04be
00000220: 16b4 f73d b7a7 c3bc d3e3 173e 4f8b 27bd
00000230: 3aa9 233d 9632 2abd 8810 38be f9f6 a6bc
00000240: 64ee 1dbe 072f a53d b372 63be 8ed8 c3bc
00000250: b59b c4bd a8e1 4b3c 95a0 13bc ffd1 4fbe
00000260: a8b0 81bb 7b09 d4bb e7d1 a1bc aea8 d8bd
00000270: 23e5 ac3c 95b6 0a3d bfd5 aa3d dec8 773d
00000280: 3de9 f0bd f02d 9f3c 8966 a53c c6d8 9e3c
00000290: edd3 143d 462d 95bd b73b 10be c818 273e
000002a0: 83b6 0cbd 1345 d93c 200d 21be c81a de3c
000002b0: 4f74 e53c 4146 3dbe 00b3 0bbe f4ce 3ebd
000002c0: cd66 bf3d 1068 0cbe b98d f6bc 63fc 64bd
000002d0: 8a3c 01bd 3723 a4bc 0571 903d d936 0fbc
000002e0: 2e60 09bd c148 8e3c 809b 783d ed4a 30be
000002f0: c34e 6b3e f8ea 9c3d 43b2 123d 35e6 df3d
00000300: 7ca5 78bd a487 a2bc 1828 1cbe eb4d ef3b
00000310: 7daf 2b3d f7a2 893d 76cc abbd 1766 db3d
00000320: 6d6d f73c 6e08 ae3d 65ea 47bd 141f 333b
00000330: 45bc 42be 7421 99bb 79bd 22be f38b 243e
00000340: ed69 1fbe b41f 163d 8ec5 3d3d 9f2b 0b3c
00000350: 7945 d63c 61d9 a23c b0f6 383d f70f ab3d
00000360: 3892 273e cc2d bcbd 164b 0d3d 9e52 f73d
00000370: b1d0 38bb 2373 fc3c 785d 913b 3c4d f33a
00000380: 5df4 e6bc 0157 c83d f778 343e 7c1b 4e3c
00000390: 88bb 00be f5c9 00be 09f8 0cbc 03b8 e33d
000003a0: 1afd 1ebe 55c0 a8bb 4df9 2ebd 56b0 efbc
000003b0: f1a6 9b3d f745 05be 13e3 b93d 71fd cbbb
000003c0: 2d81 ffbd 9048 3e3c 25db efbc 25c6 37be
000003d0: 526f 90bc b9c1 3dbd 94a1 f7bc 2812 943d
000003e0: 65f4 143d ddad 3abe b917 34be 8652 32be
000003f0: d8e9 803d 32b1 cf3c d690 5b3e 7a32 f9bc
0.061669495 0.005107268 -0.03571149 0.015618717 0.0034604224 -0.015772166 -0.08571163 0.014738575
-0.028940322 -0.0043885554 0.02197682 -0.07402037 0.06307139 -0.04740143 0.017345963 -0.060452398
-0.012638256 0.0044593234 -0.15258774 0.084987774 0.034235604 0.0024010611 -0.19906157 -0.0010041113
-0.08903841 -0.022274978 0.089842536 0.011529177 0.02920989 0.09311204 -0.040374663 0.033263892
0.06798006 0.12836027 -0.15735872 -0.039553095 0.036902264 -0.09352727 0.014603194 -0.14535946
0.043452527 0.06672868 0.0071042594 0.030976348 -0.025367288 -0.034086317 -0.009518713 -0.077743255
-0.017037874 0.02347467 0.0133202365 0.06782544 0.03011553 -0.07566982 -0.030626869 -0.03940951
0.12639894 -0.0006097663 0.06424465 -0.0164476 0.04045905 0.020227225 -0.098549716 -0.12194513
-0.05675467 0.13477223 0.019809417 0.00034118805 0.09663416 -0.007501921 0.020340905 -0.011357237
-0.07137352 0.075170055 0.08384391 -0.029994559 -0.059393357 -0.000737659 0.037813593 0.061476015
0.022140168 0.04198833 -0.06827274 0.03873298 0.041344505 -0.0048746346 0.18544416 0.0094005875
0.075828284 -0.12349255 0.19100803 0.0077884914 -0.013119945 -0.078221016 -0.059956208 -0.15208955
0.092669494 -0.02514257 0.066866234 0.003819188 0.06807075 0.04176527 -0.024954464 0.019017763
0.00333124 -0.072416246 0.07987821 0.020701664 -0.0037789128 -0.042495176 0.012545402 0.14036024
-0.011273591 -0.035212394 0.093529634 -0.032157566 -0.00456558 -0.1153101 -0.013210684 -0.027044619
0.12086804 -0.18332665 -0.03686115 0.037352353 -0.033205204 -0.003626612 -0.015197491 0.05035146
0.15151225 -0.09912619 -0.32101595 0.07023323 0.026563048 -0.028747393 0.082395695 -0.12901269
0.120948955 -0.023883684 0.14833002 -0.04090434 0.03995631 -0.04155215 -0.17975056 -0.020381438
-0.1542297 0.080656104 -0.22211723 -0.023906972 -0.09600011 0.012443937 -0.009010454 -0.20294951
-0.0039578266 -0.0064708567 -0.01975341 -0.10579048 0.021105355 0.03386553 0.0834155 0.060494296
-0.11763237 0.019431084 0.020190494 0.019390475 0.03633492 -0.07284026 -0.1408528 0.16318047
-0.034353744 0.026522195 -0.15727663 0.02711238 0.028009562 -0.18483831 -0.13642502 -0.046584085
0.093457796 -0.13711572 -0.030096876 -0.055904757 -0.031551875 -0.020036323 0.07052807 -0.008741104
-0.03353899 0.017368676 0.06069517 -0.17216082 0.22979264 0.07662004 0.035814535 0.109325804
-0.060704693 -0.01984007 -0.1524967 0.0073029897 0.041915406 0.06720536 -0.08388607 0.107128315
0.030203545 0.084977016 -0.04880752 0.0027331756 -0.19017132 -0.0046731774 -0.1589259 0.16069011
-0.15567751 0.03665133 0.04633098 0.008494287 0.026156174 0.019879045 0.045157135 0.083526544
0.16364372 -0.091884226 0.034495436 0.12076305 -0.0028200562 0.03081662 0.004436191 0.0018562446
-0.028192693 0.0978222 0.1762427 0.012579795 -0.12571537 -0.1257704 -0.008604058 0.11119082
-0.15526238 -0.005149881 -0.04271822 -0.029258888 0.07600201 -0.1301497 0.09076514 -0.006225281
-0.1247581 0.01161398 -0.029279301 -0.1794668 -0.017631207 -0.046327326 -0.030228414 0.072300255
0.036365885 -0.18230386 -0.17587174 -0.17414293 0.06294602 0.025353048 0.2144197 -0.030419577

bias f4 [5]
00000000: ad05 633d bd56 fb3b b179 d03c 1bfd 323d
00000010: 372f 5ebd
0.055425335 0.007670252 0.025448652 0.04369841 -0.054244246
